lane_model.tflite (tflite, 247400 bytes, 17 tensors)

arith.constant f4 [32]
-0.0025923098 0.04889116 0.009248498 -0.0040568346 0.012745729 -0.013845869 0.031189395 0.014861014
-0.014001655 0.023272127 0.00839588 0.0048772227 -0.04140655 0.014996396 0.03507799 0.03025569
0.09433342 0.0007396512 0.014149252 -0.11937215 0.0039309803 0.07668648 -0.08181397 0.06894969
0.002657233 -0.028259983 0.0032031494 -0.0030570156 -0.0025223033 0.05883544 -0.032275844 -0.07966549
00000000: bee3 29bb 1942 483d 0387 173c 32ef 84bb
00000010: 76d3 503c c9d9 62bc e780 ff3c 9c7b 733c
00000020: 3367 65bc 30a5 be3c e08e 093c 1cd1 9f3b
00000030: ea99 29bd 72b3 753c f0ad 0f3d c8da f73c
00000040: e131 c13d 27e5 413a 44d2 673c 6379 f4bd
00000050: 74cf 803b cd0d 9d3d 158e a7bd 7f35 8d3d
00000060: f924 2e3b 7b81 e7bc eeeb 513b 3658 48bb
00000070: 3a4d 25bb 6efd 703d ad33 04bd a927 a3bd

arith.constant1 f4 [32, 3, 3, 3]
-0.0770243 -0.05360752 -0.1866802 0.13106437 0.12077762 0.11588064 -0.062095113 0.010306869
0.1020692 -0.073549315 -0.018052565 -0.16046023 -0.15716302 0.056389432 0.019130874 0.11994917
0.22653654 0.038351316 -0.117114894 -0.14819334 -0.17015599 -0.20011526 0.125166 0.055062257
-0.03159444 0.025194468 -0.003863638 0.1049538 0.110470355 0.13307376 -0.15780559 -0.20232299
-0.14391185 -0.1733293 -0.22142033 -0.22648546 0.010965762 0.025540108 -0.12886226 -0.013195385
-0.1343235 -0.16483045 -0.24238548 -0.14380951 -0.2269003 0.19458528 0.10451502 0.13675694
-0.044772744 0.13187018 0.19833632 0.16113096 -0.049925957 0.023508972 -0.17665118 -0.07474066
-0.097904466 0.03314046 -0.010242692 0.11677102 -0.14245892 0.0120759 0.12510224 0.106135346
0.023861935 -0.05072085 0.038561467 -0.13505755 -0.115183406 0.12784134 0.13531208 0.13954762
0.045088924 -0.23241895 -0.16411744 -0.05583698 -0.16122697 0.0267107 0.26436725 0.08567576
0.14814724 0.07159277 -0.037714154 0.048529156 -0.13477409 0.019799786 -0.0004287326 -0.055335775
-0.15952599 -0.11269138 -0.02428298 -0.027325742 -0.060430318 0.046754528 0.006031963 -0.007350261
-0.083900854 0.07568405 0.053373937 0.05348802 -0.068511285 0.03545651 -0.13478093 -0.03935027
-0.0077235703 0.03629634 -0.04706847 0.08033162 -0.1781889 -0.0340999 -0.25594163 -0.18211955
-0.112186015 -0.16504431 -0.15689844 -0.00082708336 -0.08595104 -0.016765302 -0.011942902 -0.2033294
-0.054527342 0.036568847 0.031704985 0.1303963 0.2642921 0.20525102 0.07994339 -0.19233696
-0.008305269 0.023939915 -0.118275434 -0.10115033 0.17669162 0.028306926 0.11361306 -0.05203779
0.19685645 0.15813965 0.17541198 0.09867136 0.14551403 -0.15470569 0.0381197 -0.15376775
0.12538622 0.19630784 0.078972206 -0.08785277 0.07865918 -0.0077960775 -0.20210357 -0.16955936
-0.090271056 0.11991383 -0.041658893 0.015002828 -0.06623563 -0.0857028 0.05706229 -0.11581964
-0.1593132 -0.05855942 0.08888452 0.13083482 0.0007989727 -0.094618656 -0.007309718 0.08552991
0.06657874 -0.0873772 0.047752064 -0.0019453072 0.1167959 0.10531196 0.10604083 0.17043075
0.09480087 -0.0085872905 0.15661852 0.005560554 -0.09495534 -0.108349845 -0.08922822 -0.17833869
-0.08324895 -0.16675586 -0.10847773 -0.090664424 -0.115627185 0.06268933 0.048801865 0.06570002
0.09446831 -0.037665848 0.066417664 -0.03566095 0.1706248 -0.121523894 0.11114615 0.16493852
0.016143698 0.1152398 0.005814921 -0.0347564 0.038185198 0.045793932 -0.11572359 0.076238886
-0.18258929 -0.103682056 -0.06818502 -0.07386671 0.035038367 -0.10269354 -0.18590751 -0.19129394
0.1610775 0.085003875 0.101493165 0.10922508 0.12747134 -0.10967349 0.0045263055 -0.06131646
0.022193413 0.0703859 -0.015629828 -0.15147349 0.12152479 -0.024900295 0.10058957 0.1402808
0.0070716264 0.022095792 -0.12972863 -0.053697936 -0.15476143 -0.13749874 -0.100617245 0.07121692
0.11803021 -0.13089687 -0.10389751 0.1812977 0.13961142 -0.031556286 0.13131809 0.06331567
-0.1766376 0.047747996 -0.026981127 -0.15880671 0.0075891204 0.09956656 -0.18140408 0.15241168
00000000: ebbe 9dbd 8f93 5bbd 1829 3fbe bd35 063e
00000010: 425a f73d d452 ed3d 7257 7ebd 24de 283c
00000020: a809 d13d 06a1 96bd f9e2 93bc b04f 24be
00000030: 58ef 20be 9bf8 663d 5ab8 9c3c e9a7 f53d
00000040: 32f9 673e 4516 1d3d efd9 efbd ffbf 17be
00000050: 5f3d 2ebe 04eb 4cbe 842b 003e f688 613d
00000060: 2c69 01bd a164 ce3c 1735 7dbb 05f2 d63d
00000070: 483e e23d 7d44 083e ca97 21be c22d 4fbe
00000080: a15d 13be 3c7d 31be 03bc 62be ceeb 67be
00000090: bda9 333c 7d39 d13c 78f4 03be 7531 58bc
000000a0: 198c 09be 50c9 28be e633 78be cd42 13be
000000b0: 8d58 68be 5d41 473e f90b d63d 030a 0c3e
000000c0: a063 37bd fa08 073e ad18 4b3e 84ff 243e
000000d0: 297f 4cbd e395 c03c 0ce4 34be a211 99bd
000000e0: 2382 c8bd 4abe 073d f7d0 27bc a525 ef3d
000000f0: c0e0 11be ffd9 453c cd1a 003e 7d5d d93d
00000100: 1b7a c33c aac0 4fbd a1f2 1d3d 874c 0abe
00000110: 47e5 ebbd d7e8 023e 408f 0a3e 92e5 0e3e
00000120: 2aaf 383d 3cff 6dbe 670e 28be 51b5 64bd
00000130: af18 25be 66d0 da3c 255b 873e c676 af3d
00000140: e9b3 173e 3b9f 923d 287a 1abd 82c6 463d
00000150: 3802 0abe 2933 a23c 84c7 e0b9 c4a7 62bd
00000160: c85a 23be bdca e6bd 1aed c6bc 3cda dfbc
00000170: c885 77bd ad81 3f3d c6a7 c53b 75da f0bb
00000180: 36d4 abbd 3d00 9b3d a19e 5a3d 4116 5b3d
00000190: a54f 8cbd d83a 113d 0304 0abe c02d 21bd
000001a0: 0116 fdbb 79ab 143d deca 40bd e884 a43d
000001b0: 2777 36be 56ac 0bbd c80a 83be 8c7d 3abe
000001c0: c8c1 e5bd 6001 29be fca9 20be a0d0 58ba
000001d0: 1907 b0bd 6357 89bc 29ac 43bc 9535 50be
000001e0: 1058 5fbd 37c9 153d 16dd 013d 9c86 053e
000001f0: 4b51 873e 532d 523e 5cb9 a33d fbf3 44be
00000200: d312 08bc a41d c43c 643a f2bd e727 cfbd
00000210: a6ee 343e ede3 e73c f7ad e83d 9425 55bd
00000220: bd94 493e 5cef 213e 339f 333e 3614 ca3d
00000230: a101 153e 2b6b 1ebe 6723 1c3d 4b75 1dbe
00000240: 3f65 003e ec04 493e 2ebc a13d 27ec b3bd
00000250: 1018 a13d 3d76 ffbb 3df4 4ebe f8a0 2dbe
00000260: 08e0 b8bd 6295 f53d 84a2 2abd 6cce 753c
00000270: 8ca6 87bd f384 afbd 26ba 693d d932 edbd
00000280: 0023 23be 01dc 6fbd 1609 b63d 90f9 053e
00000290: 2672 513a 6dc7 c1bd 5c86 efbb 4e2a af3d
000002a0: 6f5a 883d d1f2 b2bd ab97 433d aef9 feba
000002b0: b032 ef3d ccad d73d ef2b d93d 6685 2e3e
000002c0: f526 c23d b5b1 0cbc 9b60 203e 4f35 b63b
000002d0: f277 c2bd 86e6 ddbd 49bd b6bd 6b9e 36be
000002e0: 6d7e aabd 0cc2 2abe 9229 debd 45ae b9bd
000002f0: f2cd ecbd 4363 803d 77e4 473d bb8d 863d
00000300: 9a78 c13d 8147 1abd fc05 883d 3711 12bd
00000310: 44b8 2e3e 85e1 f8bd 98a0 e33d a5e5 283e
00000320: ca3f 843c d802 ec3d 188b be3b ba5c 0ebd
00000330: 1568 1c3d 6b92 3b3d 7d00 edbd 2223 9c3d
00000340: b0f8 3abe 4257 d4bd 96a4 8bbd 6e47 97bd
00000350: 6484 0f3d fe50 d2bd 8a5e 3ebe 8fe2 43be
00000360: 80f1 243e 8316 ae3d a6db cf3d 66b1 df3d
00000370: d987 023e 7f9c e0bd 6751 943b f826 7bbd
00000380: f6ce b53c 7c26 903d 200a 80bc de1b 1bbe
00000390: fde1 f83d b4fb cbbc e801 ce3d c5a5 0f3e
000003a0: 1ab9 e73b 3c02 b53c 95d7 04be 5ef2 5bbd
000003b0: c879 1ebe 78cc 0cbe 6a10 cebd 2dda 913d
000003c0: d3b9 f13d d409 06be 38c8 d4bd 1ba6 393e
000003d0: 4cf6 0e3e 2a41 01bd 4078 063e a5ab 813d
000003e0: 7de0 34be 6793 433d 8607 ddbc 3a9e 22be
000003f0: 28ae f83b 8de9 cb3d fec1 39be cf11 1c3e

arith.constant9 f4 [1, 1, 1, 16]
0.2627609 0.5701561 0.60132194 -0.13034394 -0.14420813 0.3503404 -0.25271928 -0.25761682
0.25054386 -0.42878458 -0.62179244 0.22906171 -0.63294154 -0.15206668 0.6372801 -0.14626776
00000000: 9988 863e c0f5 113f 3cf0 193f e278 05be
00000010: 4cab 13be d15f b33e 6c64 81be 5ae6 83be
00000020: 4947 803e a789 dbbe ca2d 1fbf 278f 6a3e
00000030: 7508 22bf 5eb7 1bbe ca24 233f 37c7 15be

arith.constant10 f4 [16]
0.029346732 -0.07849377 0.045967564 0.076255575 0.04145576 -0.008541975 0.059633605 0.021942837
0.064943 0.045188528 0.12601188 0.026872639 0.0610571 0.0680194 0.06102389 0.031880744
00000000: 8f68 f03c 57c1 a0bd 7c48 3c3d e22b 9c3d
00000010: 84cd 293d a4f3 0bbc 5e42 743d 77c1 b33c
00000020: d600 853d 9b17 393d 4209 013e 0224 dc3c
00000030: 0217 7a3d c14d 8b3d 30f4 793d 6295 023d

arith.constant11 f4 [32]
0.029236702 0.014861851 0.02332167 0.09996541 0.03750752 0.008271167 0.01937965 0.029251738
0.052851036 0.031613342 0.029178062 0.006492783 0.16862778 0.059100088 -0.1954155 0.059544288
0.029706275 0.025134884 0.047799557 0.01159387 0.031109126 -0.010312571 0.06028318 0.035863433
0.02908975 0.047651798 0.09542543 0.04325253 0.02087969 0.04116908 0.002728153 -0.0096105635
00000000: cf81 ef3c 1f7f 733c 160d bf3c aaba cc3d
00000010: 7ca1 193d ca83 073c 12c2 9e3c 57a1 ef3c
00000020: 547a 583d fe7c 013d d506 ef3c 69c1 d43b
00000030: c3ac 2c3e ef12 723d 001b 48be b6e4 733d
00000040: 935a f33c ace7 cd3c 78c9 433d 37f4 3d3c
00000050: 91d8 fe3c 0ff6 28bc 7feb 763d 89e5 123d
00000060: a14d ee3c 882e 433d 686e c33d 9129 313d
00000070: e20b ab3c e9a0 283d d0ca 323b a075 1dbc

arith.constant12 f4 [64]
-0.11001517 -0.0034595118 0.025186326 0.015760642 -0.069686435 -0.0784433 -0.10500548 -0.0013645616
-0.09299767 -0.009425634 0.02888103 -0.021885503 0.020416303 -0.0075242505 -0.011661727 0.06465183
0.014012506 6.554036e-05 -0.0021627503 -0.008822473 -0.0016894405 0.01150398 0.014850696 -0.04597051
0.04238391 0.009104836 -0.013748423 0.01515669 0.007489778 -0.020319112 0.017314715 0.006146061
0.006125789 0.011598823 0.02251542 -0.024102634 0.010254174 -0.012919543 0.072543934 0.022556238
-0.0007891395 -0.022595443 -0.12653083 0.04459695 -0.14043452 0.04213301 0.0049327067 0.009258072
-0.051723838 0.04722406 -0.038846675 0.0014653608 -0.0036774795 0.005249963 0.0043227347 0.007437246
0.0020755308 -0.040969975 0.010297869 0.028845094 0.028170902 0.06477905 -0.012552183 -0.019193303
00000000: a24f e1bd fab8 62bb 8e53 ce3c 761c 813c
00000010: c3b7 8ebd e2a6 a0bd 1d0d d7bd 17db b2ba
00000020: 9075 bebd f96d 1abc e997 ec3c 3a49 b3bc
00000030: 1740 a73c fd8d f6bb d410 3fbc 2e68 843d
00000040: b694 653c b672 8938 eebc 0dbb 228c 10bc
00000050: 3770 ddba 307b 3c3c 5550 733c 934b 3cbd
00000060: c09a 2d3d 732c 153c 1141 61bc c453 783c
00000070: d06c f53b 4474 a6bc 97d7 8d3c e564 c93b
00000080: d8ba c83b fd08 3e3c 4272 b83c e372 c5bc
00000090: 1f01 283c 7eac 53bc ea91 943d dcc7 b83c
000000a0: 41de 4eba 141a b9bc 4c91 01be 4bab 363d
000000b0: 11ce 0fbe aa93 2c3d 8ba2 a13b 2baf 173c
000000c0: 60dc 53bd 046e 413d b11d 1fbd 5911 c03a
000000d0: de01 71bb e207 ac3b baa5 8d3b 24b4 f33b
000000e0: a105 083b 22d0 27bd 65b8 283c 8c4c ec3c
000000f0: aac6 e63c e1aa 843d aca7 4dbc 463b 9dbc

arith.constant13 f4 [128]
-0.04532442 -0.018889006 -0.015473026 -0.06351374 -0.009248836 -0.00018109367 -0.018555555 -0.026575912
-0.06760799 -0.106099956 -0.007444875 0.0147254355 0.023276992 0.019994255 0.032520786 -0.019724086
-0.0137526775 0.006955529 -0.019905332 -0.017984621 -0.014094793 0.020369139 -0.046448547 0.015905427
-0.013521594 0.04147137 -0.037674677 -0.04137515 -0.054196015 -0.026652219 -0.047163077 0.029694516
0.0018954017 -0.011827009 0.014973712 -0.03951619 -0.013687561 0.025979832 0.044632602 -0.05284599
-0.013444456 0.0046360195 -0.054328937 -0.0029699467 -0.021509785 0.001389074 -0.06469174 -0.020559244
-0.029408012 0.031559244 -0.05313086 -0.15341 -0.021729076 0.030718273 -0.01246111 -0.040070523
0.012604049 0.010847858 -0.040128972 -0.03588952 -0.0004799955 -0.02073646 -0.037899427 0.0025924745
-0.046833377 -0.015211219 -0.022263834 -0.026819965 0.0073252106 -0.0097455345 0.023460425 0.01964538
-0.0005408407 0.02111254 0.011275273 -0.03853097 -0.023591302 -0.05425596 0.024828047 -0.12481365
-0.027798237 0.041881155 0.007724156 0.021276614 -0.018778935 -0.00579386 -0.05519545 0.0064113555
0.00986778 -0.0015953332 -0.010911826 0.048470132 -0.0797714 -0.016872032 -0.09151787 0.014288664
0.012302717 0.017747495 0.0053419177 -0.004922973 -0.017856104 -0.03254768 -0.15170115 -0.021666987
0.04116071 -0.027958449 -0.07656532 0.0272219 0.043897696 -0.02111521 -0.013750506 -0.064334124
-0.012700962 -0.018449903 -0.028461214 -0.09485346 -0.015825672 -0.02600192 -0.0177736 -0.041782014
-0.036906727 -0.02415448 0.0044454667 -0.020351522 -0.02687668 -0.009605965 0.027348591 -0.016683554
00000000: 19a6 39bd 1ebd 9abc 9382 7dbc 7e13 82bd
00000010: 6e88 17bc f6e3 3db9 d201 98bc bab5 d9bc
00000020: 0f76 8abd ef4a d9bd 23f4 f3bb f442 713c
00000030: 64af be3c feca a33c 8434 053d 6894 a1bc
00000040: e952 61bc 35eb e33b 8210 a3bc 7c54 93bc
00000050: d9ed 66bc 2edd a63c d540 3ebd 194c 823c
00000060: ad89 5dbc e2dd 293d c350 1abd fd78 29bd
00000070: a4fc 5dbd c155 dabc 122e 41bd ea41 f33c
00000080: 216f f83a 12c6 41bc 4d54 753c badb 21bd
00000090: cb41 60bc a8d3 d43c add0 363d 0975 58bd
000000a0: 2346 5cbc c0e9 973b 0588 5ebd 70a3 42bb
000000b0: 4a35 b0bc 9711 b63a 1a7d 84bd dc6b a8bc
000000c0: 12e9 f0bc 4444 013d bf9f 59bd 8317 1dbe
000000d0: 2d01 b2bc e3a4 fb3c af29 4cbc fd20 24bd
000000e0: 3781 4e3c 37bb 313c 475e 24bd e400 13bd
000000f0: e8a7 fbb9 82df a9bc 6e3c 1bbd 81e6 293b
00000100: 5bd4 3fbd 7a38 79bc a562 b6bc 8bb5 dbbc
00000110: 5208 f03b bcab 1fbc 1430 c03c 59ef a03c
00000120: 34c7 0dba 35f4 ac3c ecbb 383c a7d2 1dbd
00000130: 8c42 c1bc 7f3b 5ebd 3064 cb3c 4d9e ffbd
00000140: 21b9 e3bc 938b 2b3d eb1a fd3b 4b4c ae3c
00000150: 48d6 99bc 6cda bdbb a014 62bd 5916 d23b
00000160: 78ac 213c 801a d1ba 84c7 32bc 9e88 463d
00000170: 305f a3bd 3737 8abc b96d bbbd 001b 6a3c
00000180: 5691 493c 3263 913c 410b af3b e450 a1bb
00000190: f746 92bc b750 05bd 8c57 1bbe f77e b1bc
000001a0: 2298 283d 1e09 e5bc 47ce 9cbd 7600 df3c
000001b0: 12ce 333d cef9 acbc cd49 61bc 9cc1 83bd
000001c0: b217 50bc 4024 97bc 7e27 e9bc 8842 c2bd
000001d0: d7a4 81bc fb01 d5bc f199 91bc 9e23 2bbd
000001e0: 822b 17bd 9edf c5bc 47ab 913b 3cb8 a6bc
000001f0: 7c2c dcbc 5662 1dbc 270a e03c f3ab 88bc

arith.constant14 f4 [64]
-0.009518544 -0.002041629 -0.0037070555 0.0033478965 -0.020598901 0.04606028 -0.0012807421 0.024845503
-0.054122582 0.013010158 0.010858802 0.015773315 -0.04802676 0.059449583 -0.012674249 -0.028188907
0.032614358 -0.05007265 0.0061362796 0.04226177 -0.1514565 -0.0090790475 0.027358897 -0.019894166
-0.043466665 -0.10146967 -0.086545974 0.011839363 -0.0042287805 0.01846998 0.021777773 0.03737783
-0.033281535 0.051334936 -0.071580805 -0.0048885606 -0.049573332 -0.08216903 -0.009217621 0.018177435
0.0040543373 0.035853226 -0.0182882 -0.038799703 -0.060422484 -0.038079344 0.03960006 0.0073520713
-0.0110007385 0.040840134 -0.020051248 -0.0008972054 -0.025187844 -0.06911874 -0.017485894 -0.00923379
-0.0042533423 -0.11129019 -0.000371612 -0.015221348 -0.02998716 -0.055160977 -0.030224651 0.0060333894
00000000: abf3 1bbc dacc 05bb 12f2 72bb 6268 5b3b
00000010: 07bf a8bc b4a9 3c3d 93de a7ba cc88 cb3c
00000020: a4af 5dbd 8f28 553c 1ee9 313c 0a37 813c
00000030: b5b7 44bd 6881 733d a7a7 4fbc 6cec e6bc
00000040: a296 053d fb18 4dbd d812 c93b ae1a 2d3d
00000050: 6a17 1bbe 49c0 14bc c41f e03c 17f9 a2bc
00000060: 1a0a 32bd 55cf cfbd 043f b1bd e3f9 413c
00000070: 9591 8abb 5b4e 973c 4d67 b23c 7f19 193d
00000080: 3852 08bd 9544 523d f598 92bd 3830 a0bb
00000090: 680d 4bbd 3d48 a8bd 8105 17bc d8e8 943c
000000a0: 3fda 843b d5da 123d 23d1 95bc 70ec 1ebd
000000b0: 917d 77bd 16f9 1bbd ac33 223d a5e9 f03b
000000c0: 713c 34bc fc47 273d 8442 a4bc 6f32 6bba
000000d0: bd56 cebc 208e 8dbd 943e 8fbc 5349 17bc
000000e0: 9f5f 8bbb 1cec e3bd ebd4 c2b9 f662 79bc
000000f0: a2a7 f5bc 7af0 61bd b099 f7bc bdb3 c53b

arith.constant16 f4 [32]
0.029926388 0.03759933 0.015362074 0.0014086507 -0.011612389 0.031112447 0.0063870084 -0.0089878375
0.008775712 -0.02551428 -0.009168381 -0.035297938 -0.023985045 0.004978696 0.0069217095 0.0016547906
0.0061093024 -0.00090042246 -0.034103625 0.0021861033 -0.014549941 0.011813702 0.010055829 -0.015708512
-0.0151058445 -0.025276555 0.041114215 -0.015614596 0.020780258 0.040187255 -0.045992002 -0.00846086
00000000: 2f28 f53c c101 1a3d 35b1 7b3c 79a2 b83a
00000010: e441 3ebc 88df fe3c 1c4a d13b b941 13bc
00000020: 01c8 0f3c 5303 d1bc fa36 16bc 9294 10bd
00000030: 497c c4bc 5424 a33b 82cf e23b 8fe5 d83a
00000040: 8b30 c83b 540a 6cba 3eb0 0bbd ba44 0f3b
00000050: e062 6ebc 428e 413c 34c1 243c 23af 80bc
00000060: 817e 77bc c710 cfbc 6167 283d 5dd4 7fbc
00000070: 5c3b aa3c 649b 243d 1c62 3cbd 6b9f 0abc

arith.constant17 f4 [64]
-0.00015363199 0.0018838488 -0.0199271 0.007317464 -0.010859966 0.0015139196 0.007082039 0.01436822
-0.0118760755 -0.016172126 -0.0012436626 0.0009101054 -0.0069660516 0.008764343 0.029361933 0.0029284232
-0.002458403 -0.02617595 -0.006308634 -0.000776712 -0.0018802568 0.002791232 0.004808379 -0.009654421
-0.00388836 0.016772794 -0.010422465 0.01380804 -0.022569155 0.011040508 0.013406335 0.0073365355
0.02331001 -0.0013233707 0.0038432954 -0.02372113 0.0033923152 -0.0026970373 -0.0033236488 0.012787481
0.0020793055 -0.0056591756 -0.00042897186 0.045525793 0.0103723025 -0.009313742 -0.0044483487 0.006462703
-0.0101204 0.013134838 -0.0011404799 -0.03744861 -0.010567852 -0.0025620218 -0.0013071954 0.018170262
0.005793525 0.0025587464 0.010818988 -0.001957383 -0.0010032107 -4.591035e-05 -0.008329358 0.004774144
00000000: 4618 21b9 7aeb f63a 283e a3bc 56c7 ef3b
00000010: 00ee 31bc b66e c63a 7310 e83b af68 6b3c
00000020: df93 42bc 687b 84bc 6402 a3ba 2494 6e3a
00000030: 7a43 e4bb 5298 0f3c 7088 f03c caea 3f3b
00000040: 281d 21bb f26e d6bc a8b8 cebb 439c 4bba
00000050: f372 f6ba 1aed 363b 9b8f 9d3b 942d 1ebc
00000060: dbd3 7ebb 1967 893c fdc2 2abc 1e3b 623c
00000070: f3e2 b8bc 3fe3 343c 3fa6 5b3c 5267 f03b
00000080: a2f4 be3c f474 adba ccdf 7b3b d152 c2bc
00000090: 9b51 5e3b c7c0 30bb 93d1 59bb 9582 513c
000000a0: f544 083b 9b70 b9bb a1e7 e0b9 4179 3a3d
000000b0: 97f0 293c aa98 18bc 74c3 91bb 15c5 d33b
000000c0: 09d0 25bc 8133 573c 287c 95ba b763 19bd
000000d0: c924 2dbc 98e7 27bb 3356 abba cdd9 943c
000000e0: 9cd7 bd3b a4b0 273b 2042 313c 7047 00bb
000000f0: 2a7e 83ba dd8f 40b8 dc77 08bc 6c70 9c3b

tfl.pseudo_qconst i1 [32, 2, 2, 64]
14 46 -7 27 -64 -64 -47 51
-27 20 25 -7 -2 9 20 16
7 2 -84 -17 26 46 10 36
59 45 -69 33 62 8 52 48
0 -35 69 23 7 15 15 -2
-3 47 5 97 21 16 7 31
-6 -14 -56 38 -87 5 16 18
14 -80 -17 57 -23 37 -50 12
-66 29 40 29 -41 -63 -34 -29
-50 -51 -26 6 -13 14 58 13
54 -50 -27 -39 -28 3 19 16
51 45 -37 40 0 -68 23 19
-26 -15 20 -63 -46 7 40 17
-4 10 26 89 -10 66 -11 1
-57 19 -30 -24 -91 -3 50 14
-21 -86 -31 -40 7 44 14 -4
-85 67 -23 -17 9 -54 -44 38
-14 -63 20 -43 29 -26 47 29
-44 -40 -63 -23 0 24 -10 31
104 14 -33 1 69 -30 43 41
-48 5 38 -28 34 44 41 13
23 15 -53 74 -23 73 -19 39
-45 60 -61 -63 -49 8 25 -14
-1 26 17 40 3 50 -29 -14
-61 71 39 41 -33 -16 -127 -19
-6 2 37 -89 -4 -24 -15 42
-17 -25 -86 -9 -69 13 49 -7
67 27 -41 14 70 -84 50 10
-45 3 -11 -76 -58 14 8 -31
-47 50 -31 63 29 97 7 14
-29 36 -9 -8 -18 -16 -12 -35
-57 18 -16 -20 29 35 50 1
00000000: 0e2e f91b c0c0 d133 e514 19f9 fe09 1410
00000010: 0702 acef 1a2e 0a24 3b2d bb21 3e08 3430
00000020: 00dd 4517 070f 0ffe fd2f 0561 1510 071f
00000030: faf2 c826 a905 1012 0eb0 ef39 e925 ce0c
00000040: be1d 281d d7c1 dee3 cecd e606 f30e 3a0d
00000050: 36ce e5d9 e403 1310 332d db28 00bc 1713
00000060: e6f1 14c1 d207 2811 fc0a 1a59 f642 f501
00000070: c713 e2e8 a5fd 320e ebaa e1d8 072c 0efc
00000080: ab43 e9ef 09ca d426 f2c1 14d5 1de6 2f1d
00000090: d4d8 c1e9 0018 f61f 680e df01 45e2 2b29
000000a0: d005 26e4 222c 290d 170f cb4a e949 ed27
000000b0: d33c c3c1 cf08 19f2 ff1a 1128 0332 e3f2
000000c0: c347 2729 dff0 81ed fa02 25a7 fce8 f12a
000000d0: efe7 aaf7 bb0d 31f9 431b d70e 46ac 320a
000000e0: d303 f5b4 c60e 08e1 d132 e13f 1d61 070e
000000f0: e324 f7f8 eef0 f4dd c712 f0ec 1d23 3201

tfl.pseudo_qconst1 i1 [64, 2, 2, 128]
35 -17 -2 56 -73 37 -28 -27
-10 -48 -10 -6 5 -25 10 -58
4 5 15 -16 -39 -3 -48 -44
-9 0 -16 -18 -8 3 -1 48
9 23 7 13 4 -13 -33 21
-67 44 -20 65 -23 -8 -41 -3
69 -18 9 -27 -18 -53 -17 7
-28 -36 18 -14 -36 -36 -13 16
84 -3 -5 9 -4 51 42 -39
3 -13 -4 9 -8 4 -10 22
-81 -38 -73 -3 22 41 -3 -49
-11 -31 -54 28 34 -9 10 -28
-1 -16 9 21 33 10 44 -20
12 36 -32 11 -13 -32 -38 10
-24 -9 11 46 -12 24 15 -15
-9 -1 -7 -3 74 -12 11 57
-11 15 1 9 7 31 -73 9
-10 -24 -17 -17 -9 10 36 -43
-1 30 22 15 -13 -20 6 -33
-19 21 -21 -10 12 0 -4 -6
31 -3 15 -25 35 -9 -19 32
-32 20 -28 35 -6 12 -17 48
24 2 -21 -34 -36 -20 -22 17
-20 -39 7 -8 -27 -32 -24 -1
-2 -7 -5 -13 13 16 -19 -1
10 -34 -36 12 -9 13 -25 4
8 -17 -40 -10 -18 -18 7 -66
-69 -12 -2 -5 8 18 -8 -11
42 17 10 14 4 9 14 -15
1 31 -34 26 13 -24 -59 3
-31 -11 -5 11 -45 20 -4 -1
19 -34 39 -5 0 13 10 35
00000000: 23ef fe38 b725 e4e5 f6d0 f6fa 05e7 0ac6
00000010: 0405 0ff0 d9fd d0d4 f700 f0ee f803 ff30
00000020: 0917 070d 04f3 df15 bd2c ec41 e9f8 d7fd
00000030: 45ee 09e5 eecb ef07 e4dc 12f2 dcdc f310
00000040: 54fd fb09 fc33 2ad9 03f3 fc09 f804 f616
00000050: afda b7fd 1629 fdcf f5e1 ca1c 22f7 0ae4
00000060: fff0 0915 210a 2cec 0c24 e00b f3e0 da0a
00000070: e8f7 0b2e f418 0ff1 f7ff f9fd 4af4 0b39
00000080: f50f 0109 071f b709 f6e8 efef f70a 24d5
00000090: ff1e 160f f3ec 06df ed15 ebf6 0c00 fcfa
000000a0: 1ffd 0fe7 23f7 ed20 e014 e423 fa0c ef30
000000b0: 1802 ebde dcec ea11 ecd9 07f8 e5e0 e8ff
000000c0: fef9 fbf3 0d10 edff 0ade dc0c f70d e704
000000d0: 08ef d8f6 eeee 07be bbf4 fefb 0812 f8f5
000000e0: 2a11 0a0e 0409 0ef1 011f de1a 0de8 c503
000000f0: e1f5 fb0b d314 fcff 13de 27fb 000d 0a23

tfl.pseudo_qconst2 i1 [16, 3, 3, 32]
17 -3 19 18 4 10 2 -4
5 3 -1 -47 23 19 -82 0
9 14 13 7 23 -1 -8 -4
3 5 8 5 -6 -12 14 -50
-9 -16 16 -15 -4 21 19 -16
15 -3 -25 -27 22 -1 -108 6
-9 11 4 -12 25 -10 -3 -11
-12 -20 -8 -3 -2 24 -21 -78
-30 13 13 -6 19 -5 -24 -15
-27 11 -27 -18 -6 -6 -22 4
-14 -10 -3 24 10 18 -41 -39
-31 -26 -17 29 -2 0 -43 -127
-12 1 -4 -15 -7 19 -1 15
29 21 -2 -7 -6 11 21 -9
-8 -5 18 -3 19 13 21 -10
17 0 6 26 -9 3 9 -15
7 -8 12 3 8 4 -2 -6
12 28 -14 8 -1 -8 6 6
-9 13 -6 2 -8 -17 2 -9
22 -20 -16 2 1 13 -17 -21
-2 -13 -6 5 18 -9 4 17
-6 6 12 14 13 23 1 15
-14 8 8 7 3 17 -16 -21
-2 -21 -25 23 4 23 -44 -31
0 6 -4 2 6 -8 7 -7
-5 6 4 -1 -1 4 19 8
-4 -17 -7 7 9 -14 -2 16
-11 17 -5 13 -2 -8 -6 -1
-24 -5 15 14 8 9 11 3
31 -6 8 -2 9 -10 5 14
11 1 11 6 17 12 -10 4
1 7 -12 2 19 20 -12 -10
00000000: 11fd 1312 040a 02fc 0503 ffd1 1713 ae00
00000010: 090e 0d07 17ff f8fc 0305 0805 faf4 0ece
00000020: f7f0 10f1 fc15 13f0 0ffd e7e5 16ff 9406
00000030: f70b 04f4 19f6 fdf5 f4ec f8fd fe18 ebb2
00000040: e20d 0dfa 13fb e8f1 e50b e5ee fafa ea04
00000050: f2f6 fd18 0a12 d7d9 e1e6 ef1d fe00 d581
00000060: f401 fcf1 f913 ff0f 1d15 fef9 fa0b 15f7
00000070: f8fb 12fd 130d 15f6 1100 061a f703 09f1
00000080: 07f8 0c03 0804 fefa 0c1c f208 fff8 0606
00000090: f70d fa02 f8ef 02f7 16ec f002 010d efeb
000000a0: fef3 fa05 12f7 0411 fa06 0c0e 0d17 010f
000000b0: f208 0807 0311 f0eb feeb e717 0417 d4e1
000000c0: 0006 fc02 06f8 07f9 fb06 04ff ff04 1308
000000d0: fcef f907 09f2 fe10 f511 fb0d fef8 faff
000000e0: e8fb 0f0e 0809 0b03 1ffa 08fe 09f6 050e
000000f0: 0b01 0b06 110c f604 0107 f402 1314 f4f6

tfl.pseudo_qconst3 i1 [32, 3, 3, 64]
-42 4 11 33 20 36 47 -39
1 48 3 -22 1 -34 19 12
-32 34 25 7 0 33 46 3
25 9 -39 2 7 0 -61 -5
-9 9 41 -26 95 -38 -53 -104
19 37 11 -5 18 -6 42 -43
-10 21 51 46 13 -5 16 56
-24 -10 45 -4 -8 -15 -25 -22
25 53 -31 89 27 50 18 -37
65 46 17 -22 29 -21 -20 2
-5 20 -11 -36 10 -37 17 -26
34 44 -55 -12 22 5 -34 -36
-11 57 13 35 66 6 -44 -50
-20 -5 -5 9 17 48 -3 -25
-38 20 -5 20 -7 14 -14 10
47 0 45 42 -3 0 -16 33
8 5 35 64 -8 22 20 -10
41 36 -41 -23 80 0 -1 -67
-7 37 33 -6 14 35 63 4
16 -5 -31 -55 21 13 -28 6
44 46 -25 -25 -31 61 -60 -82
-13 -19 14 21 61 36 34 -69
-77 36 46 10 -67 -24 41 -42
37 -17 -6 11 41 -35 -29 21
30 12 46 57 25 -22 30 7
-47 -2 11 2 -4 -19 -15 9
2 6 46 1 7 9 47 -33
1 -7 -35 -30 16 -8 -33 39
56 -12 13 41 5 3 -24 -34
-3 36 15 -9 11 32 40 -3
-71 9 41 39 -1 27 37 -60
-13 11 31 -6 -29 -39 29 8
00000000: d604 0b21 1424 2fd9 0130 03ea 01de 130c
00000010: e022 1907 0021 2e03 1909 d902 0700 c3fb
00000020: f709 29e6 5fda cb98 1325 0bfb 12fa 2ad5
00000030: f615 332e 0dfb 1038 e8f6 2dfc f8f1 e7ea
00000040: 1935 e159 1b32 12db 412e 11ea 1deb ec02
00000050: fb14 f5dc 0adb 11e6 222c c9f4 1605 dedc
00000060: f539 0d23 4206 d4ce ecfb fb09 1130 fde7
00000070: da14 fb14 f90e f20a 2f00 2d2a fd00 f021
00000080: 0805 2340 f816 14f6 2924 d7e9 5000 ffbd
00000090: f925 21fa 0e23 3f04 10fb e1c9 150d e406
000000a0: 2c2e e7e7 e13d c4ae f3ed 0e15 3d24 22bb
000000b0: b324 2e0a bde8 29d6 25ef fa0b 29dd e315
000000c0: 1e0c 2e39 19ea 1e07 d1fe 0b02 fced f109
000000d0: 0206 2e01 0709 2fdf 01f9 dde2 10f8 df27
000000e0: 38f4 0d29 0503 e8de fd24 0ff7 0b20 28fd
000000f0: b909 2927 ff1b 25c4 f30b 1ffa e3d9 1d08

tfl.pseudo_qconst4 i1 [64, 3, 3, 128]
21 -30 32 16 -34 -8 -55 -60
-25 51 38 51 -63 -73 1 39
50 6 17 11 -24 -26 48 76
21 -45 -15 -19 41 -12 -38 21
-46 -44 -57 10 -22 -49 68 -23
5 -121 -52 -123 -25 40 39 37
-8 1 -37 1 14 39 40 24
8 9 5 8 -10 44 20 13
61 -71 -10 -39 -54 -11 12 37
-32 -88 -74 -37 63 22 40 14
33 68 26 5 -40 -10 -8 -7
1 -18 -8 -10 38 12 52 -83
39 -52 12 -23 -10 43 -2 -6
4 8 -50 -40 -6 -14 7 -12
-45 19 6 -36 -16 20 9 -10
-19 94 4 13 -2 22 -18 27
-11 33 20 3 -7 22 -43 -51
-2 52 30 39 -45 -37 10 23
29 -15 15 6 -18 -3 75 23
15 -20 -3 3 75 3 -16 27
-42 -25 -24 2 -18 -3 46 -8
17 -102 -20 -77 -11 23 25 61
-27 6 -23 -3 17 0 35 18
-20 10 -14 13 14 41 21 3
77 -22 -21 -43 -48 9 35 9
-18 -75 -79 -12 -3 38 29 14
1 41 17 34 -39 -2 -19 -7
18 -75 -14 -10 44 25 52 -109
30 -16 20 11 -22 5 3 3
30 0 4 -50 -6 -21 26 0
-23 -3 -13 -15 -18 26 -38 -4
-23 112 -58 -21 -4 28 -91 -6
00000000: 15e2 2010 def8 c9c4 e733 2633 c1b7 0127
00000010: 3206 110b e8e6 304c 15d3 f1ed 29f4 da15
00000020: d2d4 c70a eacf 44e9 0587 cc85 e728 2725
00000030: f801 db01 0e27 2818 0809 0508 f62c 140d
00000040: 3db9 f6d9 caf5 0c25 e0a8 b6db 3f16 280e
00000050: 2144 1a05 d8f6 f8f9 01ee f8f6 260c 34ad
00000060: 27cc 0ce9 f62b fefa 0408 ced8 faf2 07f4
00000070: d313 06dc f014 09f6 ed5e 040d fe16 ee1b
00000080: f521 1403 f916 d5cd fe34 1e27 d3db 0a17
00000090: 1df1 0f06 eefd 4b17 0fec fd03 4b03 f01b
000000a0: d6e7 e802 eefd 2ef8 119a ecb3 f517 193d
000000b0: e506 e9fd 1100 2312 ec0a f20d 0e29 1503
000000c0: 4dea ebd5 d009 2309 eeb5 b1f4 fd26 1d0e
000000d0: 0129 1122 d9fe edf9 12b5 f2f6 2c19 3493
000000e0: 1ef0 140b ea05 0303 1e00 04ce faeb 1a00
000000f0: e9fd f3f1 ee1a dafc e970 c6eb fc1c a5fa

tfl.pseudo_qconst5 i1 [128, 3, 3, 64]
33 11 -43 47 38 19 34 -25
3 55 -14 38 -14 15 35 -29
28 37 2 -7 -52 14 12 -6
31 2 -28 -6 52 23 5 -33
-15 7 -42 -13 -20 -77 -9 43
-34 4 2 -15 -3 -10 24 22
16 -14 -5 20 -22 -18 2 -47
-13 -2 6 -38 -5 -16 11 7
14 25 -32 22 41 14 -25 -7
-1 33 -11 17 -4 6 23 6
27 16 -1 -10 -36 21 26 6
28 -8 -45 -25 -12 -7 -25 -70
-4 -3 -29 8 -10 -60 10 9
-42 6 -24 11 2 10 4 -2
10 -8 3 -1 -12 -30 -9 -26
-3 -19 6 -25 -7 1 -1 -8
16 -33 -32 17 49 43 14 -39
-33 13 -6 13 18 -5 31 29
31 17 2 -6 -83 25 4 1
35 8 -67 -23 34 14 -34 -33
11 5 6 10 18 -80 -10 8
-83 28 2 -18 2 20 13 -9
-26 17 5 -3 -20 32 17 -23
-8 17 -19 -1 -5 -11 -10 -21
-18 52 19 -37 -35 28 30 -6
8 -5 -12 -29 -71 -5 -44 -23
-2 -13 -10 -9 8 -17 17 -4
-44 11 -33 -24 -12 38 -30 -47
-53 -9 26 5 -20 -44 1 13
29 -66 -48 8 -9 14 20 -6
27 -36 -10 25 4 -36 10 -62
-24 72 0 -74 11 3 0 -1
00000000: 210b d52f 2613 22e7 0337 f226 f20f 23e3
00000010: 1c25 02f9 cc0e 0cfa 1f02 e4fa 3417 05df
00000020: f107 d6f3 ecb3 f72b de04 02f1 fdf6 1816
00000030: 10f2 fb14 eaee 02d1 f3fe 06da fbf0 0b07
00000040: 0e19 e016 290e e7f9 ff21 f511 fc06 1706
00000050: 1b10 fff6 dc15 1a06 1cf8 d3e7 f4f9 e7ba
00000060: fcfd e308 f6c4 0a09 d606 e80b 020a 04fe
00000070: 0af8 03ff f4e2 f7e6 fded 06e7 f901 fff8
00000080: 10df e011 312b 0ed9 df0d fa0d 12fb 1f1d
00000090: 1f11 02fa ad19 0401 2308 bde9 220e dedf
000000a0: 0b05 060a 12b0 f608 ad1c 02ee 0214 0df7
000000b0: e611 05fd ec20 11e9 f811 edff fbf5 f6eb
000000c0: ee34 13db dd1c 1efa 08fb f4e3 b9fb d4e9
000000d0: fef3 f6f7 08ef 11fc d40b dfe8 f426 e2d1
000000e0: cbf7 1a05 ecd4 010d 1dbe d008 f70e 14fa
000000f0: 1bdc f619 04dc 0ac2 e848 00b6 0b03 00ff

tfl.pseudo_qconst6 i1 [64, 3, 3, 32]
25 16 -51 2 -42 -43 -14 -2
-16 29 7 32 45 -1 38 43
-19 33 31 -92 26 -37 -30 57
1 -17 -59 -11 1 -55 12 -51
25 5 -42 -4 51 21 -9 5
-25 39 53 23 19 32 13 -15
23 10 20 -56 -5 20 -73 24
-34 -47 -54 -12 6 -4 -12 -34
20 -56 -25 -12 55 0 -8 38
3 24 39 12 5 36 -33 2
19 28 37 -52 23 -45 -57 38
15 -63 -6 -19 -18 -61 23 -11
-18 40 28 -30 -24 -40 20 12
-14 27 17 11 69 5 32 10
37 35 0 -77 52 -127 -19 63
-6 -19 -24 10 -28 14 -13 -53
-25 -6 -11 13 -12 -63 -20 2
-38 -8 26 -22 -7 6 9 -38
5 3 -6 -57 4 -66 -53 39
-15 -11 -15 -21 -23 -7 -3 -44
-39 20 -22 -27 3 -17 43 16
-31 12 27 28 13 -25 -33 -6
-9 26 18 -54 28 -77 -53 62
29 -49 -28 -24 8 -41 27 -50
-22 -14 -37 12 75 -65 45 -16
18 46 0 9 31 23 -10 -10
-57 -23 -9 -61 10 -79 -9 21
-25 -9 3 -27 10 -22 -28 -24
-23 -63 -20 -16 33 -23 -2 -13
-35 -6 42 21 -9 -9 2 -9
-32 -17 -5 -88 -29 -17 -18 30
-3 6 22 -21 -9 -23 8 -16
00000000: 1910 cd02 d6d5 f2fe f01d 0720 2dff 262b
00000010: ed21 1fa4 1adb e239 01ef c5f5 01c9 0ccd
00000020: 1905 d6fc 3315 f705 e727 3517 1320 0df1
00000030: 170a 14c8 fb14 b718 ded1 caf4 06fc f4de
00000040: 14c8 e7f4 3700 f826 0318 270c 0524 df02
00000050: 131c 25cc 17d3 c726 0fc1 faed eec3 17f5
00000060: ee28 1ce2 e8d8 140c f21b 110b 4505 200a
00000070: 2523 00b3 3481 ed3f faed e80a e40e f3cb
00000080: e7fa f50d f4c1 ec02 daf8 1aea f906 09da
00000090: 0503 fac7 04be cb27 f1f5 f1eb e9f9 fdd4
000000a0: d914 eae5 03ef 2b10 e10c 1b1c 0de7 dffa
000000b0: f71a 12ca 1cb3 cb3e 1dcf e4e8 08d7 1bce
000000c0: eaf2 db0c 4bbf 2df0 122e 0009 1f17 f6f6
000000d0: c7e9 f7c3 0ab1 f715 e7f7 03e5 0aea e4e8
000000e0: e9c1 ecf0 21e9 fef3 ddfa 2a15 f7f7 02f7
000000f0: e0ef fba8 e3ef ee1e fd06 16eb f7e9 08f0
